…
\u4e48 str(index) \u4f5c\u4e3a key     \u53ef\u4ee5\u901a\u8fc7 index \u4e5f\u53ef\u4ee5\u901a\u8fc7 key \u6765 access</p> <pre><code>Meth:\n    - .pop(key)\n    - .append()\n    - .extend(Sequential)\n    - .insert(index, Module)\n    - del(model)\n    - = model1 + model 2\n\nExample:\n    &gt;&gt;&gt; # \u6309\u987a\u5e8f\u7ecf\u8fc7 Conv2d(1,20,5) - ReLU - Conv2d(20,64,5) - ReLU\n    &gt;&gt;&gt; model = nn.Sequential(\n            nn.Conv2d(1,20,5),\n            nn.ReLU(),\n            nn.Conv2d(20,64,5),\n            nn.ReLU())\n    &gt;&gt;&gt; print(model)\n    # Sequential(\n        (0): Conv2d(1, 20, kernel_size=(5, 5), stride=(1, 1))\n        (1): ReLU()\n        (2): Conv2d(20, 64, kernel_size=(5, 5), stride=(1, 1))\n        (3): ReLU())\n    &gt;&gt;&gt; print(model[-1])\n    # ReLU()\n    &gt;&gt;&gt; model.pop(-1) # \u548c stack \u4e0d\u4e00\u6837\uff0c\u5fc5\u987b\u4f20 index \u6216 key\n    # ReLU()\n    &gt;&gt;&gt; print(model)\n    # Conv2d(20, 64, kernel_size=(5, 5), stride=(1, 1))\n    &gt;&gt;&gt; model[-1] = ReLU()\n    &gt;&gt;&gt; del(model[0])\n    &gt;&gt;&gt; model.append(Liner(10, 3)\n    # Sequential(\n        (0): ReLU()\n        (1): ReLU()\n        (2): Linear(10, 3)     \n    -------------------------------------------\n    &gt;&gt;&gt; # Using Sequential with OrderedDict.\n    &gt;&gt;&gt; from collections import OrderedDict\n    &gt;&gt;&gt; model = nn.Sequential(OrderedDict([ \n            ('conv1', nn.Conv2d(1,20,5)),\n            ('relu1', nn.ReLU()),\n            ('conv2', nn.Conv2d(20,64,5)),\n            ('relu2', nn.ReLU())\n            ]))\n    &gt;&gt;&gt; print(model)\n    # Sequential(\n        (conv1): Conv2d(1, 20, kernel_size=(5, 5), stride=(1, 1))\n        (relu1): ReLU()\n        (conv2): Conv2d(20, 64, kernel_size=(5, 5), stride=(1, 1))\n        (relu2): ReLU())\n\"\"\"\n...\n\ndef __init__(self, *args):\n    super().__init__()\n    if len(args) == 1 and isinstance(args[0], OrderedDict):\n        for key, module in args[0].items():\n            self.add_module(key, module)\n    else:\n        for idx, module in enumerate(args):\n            self.add_module(str(idx), module)\n\ndef __seti
…
\u786e\u7684\u5206\u8fa8\u7387/\u63d2\u503c\u8c03\u6574\u5927\u5c0f\uff0c\u5e94\u7528\u63a8\u7406\u53d8\u6362\uff0c\u91cd\u65b0\u7f29\u653e\u503c\u7b49\uff09 \u73b0\u5728\u7edf\u4e00\u63d0\u4f9b\u4e86\u3002</p> <pre><code>weights = ResNet50_Weights.DEFAULT\npreprocess = weights.transforms() # Weight Transforms \u521d\u59cb\u5316\nimg_transformed = preprocess(img) # \u9884\u5904\u7406\u56fe\u50cf\n</code></pre>"},{"location":"python/pytorch/#vgg16","title":"vgg16","text":"<p>Very Deep Convolutional Networks for Large-Scale Image Recognition</p> <pre><code>VGG(\n  (features): Sequential(\n    (0): Conv2d(3, 64, kernel_size=(3, 3), stride=(1, 1), padding=(1, 1))\n    (1): ReLU(inplace=True)\n    (2): Conv2d(64, 64, kernel_size=(3, 3), stride=(1, 1), padding=(1, 1))\n    (3): ReLU(inplace=True)\n    (4): MaxPool2d(kernel_size=2, stride=2, padding=0, dilation=1, ceil_mode=False)\n    (5): Conv2d(64, 128, kernel_size=(3, 3), stride=(1, 1), padding=(1, 1))\n    (6): ReLU(inplace=True)\n    (7): Conv2d(128, 128, kernel_size=(3, 3), stride=(1, 1), padding=(1, 1))\n    (8): ReLU(inplace=True)\n    (9): MaxPool2d(kernel_size=2, stride=2, padding=0, dilation=1, ceil_mode=False)\n    (10): Conv2d(128, 256, kernel_size=(3, 3), stride=(1, 1), padding=(1, 1))\n    (11): ReLU(inplace=True)\n    (12): Conv2d(256, 256, kernel_size=(3, 3), stride=(1, 1), padding=(1, 1))\n    (13): ReLU(inplace=True)\n    (14): Conv2d(256, 256, kernel_size=(3, 3), stride=(1, 1), padding=(1, 1))\n    (15): ReLU(inplace=True)\n    (16): MaxPool2d(kernel_size=2, stride=2, padding=0, dilation=1, ceil_mode=False)\n    (17): Conv2d(256, 512, kernel_size=(3, 3), stride=(1, 1), padding=(1, 1))\n    (18): ReLU(inplace=True)\n    (19): Conv2d(512, 512, kernel_size=(3, 3), stride=(1, 1), padding=(1, 1))\n    (20): ReLU(inplace=True)\n    (21): Conv2d(512, 512, kernel_size=(3, 3), stride=(1, 1), padding=(1, 1))\n    (22): ReLU(inplace=True)\n    (23): MaxPool2d(kernel_size=2, stride=2, padding=0, dilation=1, ceil_mode=False)\n    (24): Conv2d(512, 512, kernel_size=(3, 3), stride=(1, 1), padding=(1, 1))\n    (25): ReLU(inplace=True)\n    (26): Conv2d(512, 512, kernel_size=(3, 3), stride=(1, 1), padding=(1, 1))\n    (27): ReLU(inplace=True)\n    (28): Conv2d(512, 512, kernel_size=(3, 3), stride=(1, 1), padding=(1, 1))\n    (29): ReLU(inplace=True)\n    (30): MaxPool2d(kernel_size=2, stride=2, padding=0, dilation=1, ceil_mode=False)\n  )\n  (avgpool): AdaptiveAvgPool2d(output_size=(7, 7))\n  (classifier): Sequential(\n    (0): Linear(in_features=25088, out_features=4096, bias=True)\n    (1): ReLU(inplace=True)\n    (2): Dropout(p=0.5, inplace=False)\n    (3): Linear(in_features=4096, out_features=4096, bias=True)\n    (4): ReLU(inplace=True)\n    (5): Dropout(p=0.5, inplace=False)\n    (6): Linear(in_features=4096, out_features=1000, bias=True)\n  )\n)\n</code></pre> <pre><code>@register_model()\n@handle_legacy_interface(weights=(\"pretrained\", VGG16_Weights.IMAGENET1K_V1))\ndef vgg16(*, weights: Optional[VGG16_Weights] = None, progress: bool = True, **kwargs: Any) -&gt; VGG:\n    \"\"\"\n    VGG-16 \n\n    Args:\n        - weights: Optional(torchvision.models.VGG16_Weights, None) = \u662f
…
